…
eval_neg_sample_args = {'strategy': 'by', 'by': 50, 'distribution': 'uniform'}


15 Sep 11:44    INFO  hm
The number of users: 1371981
Average actions of users: 4.747946459831407
The number of items: 123789
Average actions of items: 9.662172530965691
The number of inters: 176296
The sparsity of the dataset: 99.99989619642594%
Remain Fields: ['t_dat', 'customer_id', 'article_id']
15 Sep 11:44    INFO  [Training]: train_batch_size = [300] negative sampling: [None]
15 Sep 11:44    INFO  [Evaluation]: eval_batch_size = [300] eval_args: [{'split': {'RS': [4, 1, 1]}, 'group_by': 'None', 'order': 'TO', 'mode': 'uni50'}]
15 Sep 11:44    INFO  BERT4Rec(
  (item_embedding): Embedding(123790, 64, padding_idx=0)
  (position_embedding): Embedding(51, 64)
  (trm_encoder): TransformerEncoder(
    (layer): ModuleList(
      (0): TransformerLayer(
        (multi_head_attention): MultiHeadAttention(
          (query): Linear(in_features=64, out_features=64, bias=True)
          (key): Linear(in_features=64, out_features=64, bias=True)
          (value): Linear(in_features=64, out_features=64, bias=True)
          (softmax): Softmax(dim=-1)
          (attn_dropout): Dropout(p=0.5, inplace=False)
          (dense): Linear(in_features=64, out_features=64, bias=True)
          (LayerNorm): LayerNorm((64,), eps=1e-12, elementwise_affine=True)
          (out_dropout): Dropout(p=0.5, inplace=False)
        )
        (feed_forward): FeedForward(
          (dense_1): Linear(in_features=64, out_features=256, bias=True)
          (dense_2): Linear(in_features=256, out_features=64, bias=True)
          (LayerNorm): LayerNorm((64,), eps=1e-12, elementwise_affine=True)
          (dropout): Dropout(p=0.5, inplace=False)
        )
      )
      (1): TransformerLayer(
        (multi_head_attention): MultiHeadAttention(
          (query): Linear(in_features=64, out_features=64, bias=True)
          (key): Linear(in_features=64, out_features=64, bias=True)
          (value): Linear(in_features=64, out_features=64, bias=True)
          (softmax): Softmax(dim=-1)
          (attn_dropout): Dropout(p=0.5, inplace=False)
          (dense): Linear(in_features=64, out_features=64, bias=True)
          (LayerNorm): LayerNorm((64,), eps=1e-12, elementwise_affine=True)
          (out_dropout): Dropout(p=0.5, inplace=False)
        )
        (feed_forward): FeedForward(
          (dense_1): Linear(in_features=64, out_features=256, bias=True)
          (dense_2): Linear(in_features=256, out_features=64, bias=True)
          (LayerNorm): LayerNorm((64,), eps=1e-12, elementwise_affine=True)
          (dropout): Dropout(p=0.5, inplace=False)
        )
      )
    )
  )
  (LayerNorm): LayerNorm((64,), eps=1e-12, elementwise_affine=True)
  (dropout): Dropout(p=0.5, inplace=False)
)
Trainable parameters: 8025920
Train     0: 100%|███████████████████████| 310/310 [00:47<00:00,  6.57it/s, GPU RAM: 4.83 G/10.92 G]
15 Sep 11:45    INFO  epoch 0 training [time: 47.19s, train loss: 2849.0065]
Evaluate   : 100%|█████████████████████| 6660/6660 [01:21<00:00, 81.60it/s, GPU RAM: 4.83 G/10.92 G]
15 Sep 11:47    INFO  epoch 0 evaluating [time: 81.67s, valid_score: 0.419300]
…
